(252, 300, 300, 3)
(252, 5)
(300, 300, 300, 3)
(300, 5)
(210, 300, 300, 3)
(210, 5)
(207, 300, 300, 3)
(207, 5)
(300, 300, 300, 3)
(300, 5)
(1269, 300, 300, 3)
(1269, 5)
(1015, 300, 300, 3)
(1015, 5)
(127, 300, 300, 3)
(127, 5)
(127, 300, 300, 3)
(127, 5)
Model: "sequential"
_________________________________________________________________
 Layer (type)                Output Shape              Param #   
=================================================================
 conv2d (Conv2D)             (None, 300, 300, 25)      1900      
                                                                 
 max_pooling2d (MaxPooling2D  (None, 150, 150, 25)     0         
 )                                                               
                                                                 
 conv2d_1 (Conv2D)           (None, 75, 75, 50)        31300     
                                                                 
 max_pooling2d_1 (MaxPooling  (None, 38, 38, 50)       0         
 2D)                                                             
                                                                 
 batch_normalization (BatchN  (None, 38, 38, 50)       200       
 ormalization)                                                   
                                                                 
 conv2d_2 (Conv2D)           (None, 19, 19, 70)        31570     
                                                                 
 max_pooling2d_2 (MaxPooling  (None, 9, 9, 70)         0         
 2D)                                                             
                                                                 
 batch_normalization_1 (Batc  (None, 9, 9, 70)         280       
 hNormalization)                                                 
                                                                 
 flatten (Flatten)           (None, 5670)              0         
                                                                 
 dense (Dense)               (None, 100)               567100    
                                                                 
 dense_1 (Dense)             (None, 100)               10100     
                                                                 
 dropout (Dropout)           (None, 100)               0         
                                                                 
 dense_2 (Dense)             (None, 5)                 505       
                                                                 
=================================================================
Total params: 642,955
Trainable params: 642,715
Non-trainable params: 240
_________________________________________________________________
None
Epoch 1/30
 1/32 [..............................] - ETA: 1:41 - loss: 2.1540 - accuracy: 0.2812
…
