(252, 300, 300, 3)
(252, 5)
(300, 300, 300, 3)
(300, 5)
(210, 300, 300, 3)
(210, 5)
(207, 300, 300, 3)
(207, 5)
(200, 300, 300, 3)
(200, 5)
(1169, 300, 300, 3)
(1169, 5)
(935, 300, 300, 3)
(935, 5)
(117, 300, 300, 3)
(117, 5)
(117, 300, 300, 3)
(117, 5)
Model: "sequential"
_________________________________________________________________
 Layer (type)                Output Shape              Param #   
=================================================================
 conv2d (Conv2D)             (None, 300, 300, 25)      1900      
                                                                 
 max_pooling2d (MaxPooling2D  (None, 150, 150, 25)     0         
 )                                                               
                                                                 
 conv2d_1 (Conv2D)           (None, 75, 75, 50)        31300     
                                                                 
 max_pooling2d_1 (MaxPooling  (None, 38, 38, 50)       0         
 2D)                                                             
                                                                 
 batch_normalization (BatchN  (None, 38, 38, 50)       200       
 ormalization)                                                   
                                                                 
 flatten (Flatten)           (None, 72200)             0         
                                                                 
 dense (Dense)               (None, 100)               7220100   
                                                                 
 dense_1 (Dense)             (None, 100)               10100     
                                                                 
 dropout (Dropout)           (None, 100)               0         
                                                                 
 dense_2 (Dense)             (None, 5)                 505       
                                                                 
=================================================================
Total params: 7,264,105
Trainable params: 7,264,005
Non-trainable params: 100
_________________________________________________________________
None
Epoch 1/30
 1/30 [>.............................] - ETA: 1:27 - loss: 1.8289 - accuracy: 0.3125
…
