(200, 512, 512, 3)
(200, 5)
(200, 512, 512, 3)
(200, 5)
(200, 512, 512, 3)
(200, 5)
(200, 512, 512, 3)
(200, 5)
(200, 512, 512, 3)
(200, 5)
(200, 512, 512, 3)
(200, 5)
(200, 512, 512, 3)
(200, 5)
(1400, 512, 512, 3)
(1400, 5)
(1120, 512, 512, 3)
(1120, 5)
(140, 512, 512, 3)
(140, 5)
(140, 512, 512, 3)
(140, 5)
Model: "sequential"
_________________________________________________________________
 Layer (type)                Output Shape              Param #   
=================================================================
 conv2d (Conv2D)             (None, 510, 510, 32)      896       
                                                                 
 max_pooling2d (MaxPooling2D  (None, 255, 255, 32)     0         
 )                                                               
                                                                 
 conv2d_1 (Conv2D)           (None, 253, 253, 64)      18496     
                                                                 
 max_pooling2d_1 (MaxPooling  (None, 126, 126, 64)     0         
 2D)                                                             
                                                                 
 conv2d_2 (Conv2D)           (None, 124, 124, 64)      36928     
                                                                 
 flatten (Flatten)           (None, 984064)            0         
                                                                 
 dense (Dense)               (None, 64)                62980160  
                                                                 
 dense_1 (Dense)             (None, 5)                 325       
                                                                 
=================================================================
Total params: 63,036,805
Trainable params: 63,036,805
Non-trainable params: 0
_________________________________________________________________
None
Epoch 1/5
1/9 [==>...........................] - ETA: 7:24 - loss: 1.6800 - accuracy: 0.2188
…
